Training.pth (torch, 7447 bytes, 6 tensors)

l1.weight f4 [8, 98]
0	0x3df1e1f8	0.11810678
1	0xbf7af7ac	-0.9803417
2	0xbe180bb3	-0.14848213
3	0x3f2d7b1d	0.6776598
4	0xbe2ec449	-0.17067064
5	0xbbae8c6c	-0.005326798
6	0xbeeb8180	-0.45997238
7	0x3e811203	0.25209054
8	0x3f45e2f0	0.77299404
9	0x3e754bc3	0.23954682
10	0x3f18f073	0.59741896
11	0xbef3cfd6	-0.47619504
12	0x3f1e5799	0.61852413
13	0x3ebddc5c	0.37082183
14	0x3e73c15e	0.23804232
15	0x3e96bb71	0.2943988
16	0xbf69fd2a	-0.9140192
17	0x3f209e82	0.62741864
18	0x3f410a33	0.7540619
19	0x3e8f5db3	0.28001174
20	0x3f00668b	0.5015647
21	0xbe3e8a59	-0.18607463
22	0xbe29a665	-0.1656738
23	0x3f582c61	0.84442717
24	0x3f0b8121	0.5449391
25	0x3f12f128	0.57399225
26	0xbf2b5d1f	-0.66938967
27	0x3e7d5e45	0.24742992
28	0x3eb95369	0.3619645
29	0x3eed8759	0.46392325
30	0xbf0a9e57	-0.5414786
31	0xbf2b1b27	-0.66838306
32	0xbf2b05c2	-0.6680566
33	0xbe5b543b	-0.2141885
34	0x3f001dfa	0.5004574
35	0xbd2f1dd5	-0.04275306
36	0x3ef02ade	0.46907705
37	0x3e85b5cc	0.26115263
38	0x3e8e9ade	0.2785253
39	0x3e920b98	0.2852447
40	0x3ee1840d	0.4404606
41	0x3e7d683e	0.24746796
42	0x3eaa8b16	0.3330924
43	0x3edb0ac4	0.4278165
44	0x3ec92559	0.39286307
45	0xbf016c01	-0.50555426
46	0xbf012aa8	-0.50455713
47	0x3ea38aa6	0.31941718
48	0x3f21762f	0.6307096
49	0x3eb6ba0c	0.35688818
50	0xbe1b1258	-0.15143716
51	0xbeb34bed	-0.35018864
52	0xbd1a63d9	-0.03769288
53	0x3eb6111c	0.35559928
54	0xbf2827dc	-0.6568582
55	0x3f8a688b	1.0813154
56	0xbdfc82fe	-0.12329672
57	0x3ef286d6	0.47368497
58	0x3ec23172	0.3792835
59	0x3ed5ee48	0.41783357
60	0x3ef6f957	0.48237106
61	0x3ebbb6e7	0.3666298
62	0x3ef6919f	0.48157975
63	0x3e69e744	0.22842127
64	0x3f35a0c4	0.70948434
65	0x3fc77a9a	1.558429
66	0xbf9d5fae	-1.2294824
67	0x3c5601e0	0.0130619705
68	0x3f859d63	1.0438656
69	0xbe1227b6	-0.14272961
70	0xbf15493b	-0.58314866
71	0x3f4c8044	0.7988322
72	0x3e499960	0.19687414
73	0xbece3cb1	-0.4028068
74	0xbf2b272b	-0.6685664
75	0x3d5946ea	0.053046145
76	0x3dfa441a	0.122200206
77	0xbd933a85	-0.07188896
78	0x3ec88429	0.3916333
79	0xbf2b1e6d	-0.668433
80	0xbd84d71a	-0.0648634
81	0x3f3167ff	0.6929931
82	0x3ec4d748	0.38445497
83	0x3e9ab7b0	0.30218267
84	0x3fa97a27	1.3240403
85	0xbdfe01ff	-0.124027245
86	0xbe02f5dd	-0.12789102
87	0xbeaacab7	-0.33357784
88	0xbe209006	-0.1567994
89	0xbeab6ac7	-0.33479902
90	0x3f2113df	0.62920946
91	0xbe48e4ce	-0.19618532
92	0x3ea48de3	0.321395
93	0x3f010483	0.5039751
94	0x3f1067c7	0.5640835
95	0xbe3b0447	-0.1826335
96	0xbefd6778	-0.49493003
97	0x3d84505e	0.06460641
98	0x3ed21e48	0.41038728
99	0xbd56110a	-0.052262343
100	0x3e403ecb	0.18773954
101	0x3f3f49d3	0.7472202
102	0xbe4ea634	-0.20180589
103	0xbe0aaf97	-0.13543545
104	0x3d92eb16	0.07173745
105	0x3f155138	0.58327055
106	0x3f21ea67	0.63248295
107	0x3ee0cf15	0.4390799
108	0xbe4b2513	-0.19838361
109	0xbd4a0a0f	-0.049326
110	0x3f27cf1a	0.65550387
111	0x3f151e64	0.582495
112	0x3d0a075e	0.033698432
113	0x3d9147a4	0.070937425
114	0x3f86090c	1.0471511
115	0xbf333c13	-0.7001354
116	0x3d3adf6b	0.045623224
117	0x3e73e338	0.23817146
118	0xbf38a6ee	-0.72129714
119	0x3d5a758b	0.053334754
120	0xbe198f4a	-0.14996067
121	0x3f498ffa	0.78735316
122	0x3f0bd2cd	0.5461853
123	0xbe112d7b	-0.14177506
124	0x3f64bd7f	0.8935165
125	0x3de04fd4	0.10952726
126	0xbe423dc0	-0.18968868
127	0xbe3d9617	-0.18514286
128	0x3f082774	0.531852
129	0x3f17fed1	0.59373194
130	0x3f06506c	0.52466464
131	0xbe8710a8	-0.26379895
132	0xbf068acb	-0.5255553
133	0xbe43078b	-0.19045846
134	0x3f2aafa6	0.6667427
135	0xbf3f8c19	-0.7482315
136	0xbe969616	-0.2941138
137	0xbe315aa2	-0.1731973
138	0x3ea139fc	0.3148955
139	0x3c0077e9	0.007841089
140	0x3b7f8381	0.0038988295
141	0xbe32a1dc	-0.17444557
142	0xbd7bbc12	-0.061458655
143	0xbed3438b	-0.4126247
144	0xbed30ea3	-0.41222104
145	0x3f359960	0.70937157
146	0xbe865fe1	-0.26245025
147	0xbda47e25	-0.08031873
148	0xbcdba606	-0.026812565
149	0x3f05848b	0.5215537
150	0xbd7465f9	-0.05966756
151	0x3ed2704c	0.411013
152	0xbece3e9c	-0.40282142
153	0xbe89b9df	-0.2689962
154	0xbd0884fc	-0.03332995
155	0x3efee107	0.49781057
156	0x3e12b385	0.14326294
157	0x3f04927c	0.5178602
158	0x3f00d0bc	0.50318503
159	0x3f0e4a18	0.5558181
160	0x3f039474	0.51398396
161	0xbdede3ba	-0.11615701
162	0x3e800467	0.2500336
163	0xbee302b9	-0.44338015
164	0x3fce7b7b	1.6131433
165	0x3de2af20	0.11068559
166	0xbf88eb46	-1.06968
167	0xbd080d5c	-0.033215865
168	0x3ebbfc63	0.36715993
169	0x3f680b94	0.90642667
170	0x3d4d8e1f	0.050184365
171	0xbf36664f	-0.7124986
172	0x3f6d2550	0.9263506
173	0xbd8a9ce7	-0.06768208
174	0x3f10157a	0.5628277
175	0xbd046848	-0.032326013
176	0x3daebb4b	0.08531817
177	0x3f77c41a	0.967836
178	0x3f5ed93e	0.87050235
179	0x3f1eb448	0.6199384
180	0xbec3ec8e	-0.38266414
181	0x3d10c9ac	0.03534858
182	0xbeb19dea	-0.3469079
183	0x3e35f214	0.17768127
184	0x3dbc4147	0.09192138
185	0x3e9bcfc7	0.3043196
186	0x3cab2c57	0.020895166
187	0x3ec992bb	0.3936976
188	0x3d33cda1	0.043897275
189	0x3f41e0c1	0.7573357
190	0x3f3ebf97	0.7451109
191	0x3fa7b804	1.3103032
192	0x3e0e33a1	0.13886882
193	0xbf131deb	-0.57467526
194	0xbc85eb8a	-0.016347665
195	0x3ce3f527	0.027826859
196	0x3f234fc8	0.6379361
197	0x3f9816b2	1.1881926
198	0x3eb5b40b	0.35488924
199	0x3f3d090b	0.73841923
200	0xbe1a2c92	-0.15056065
201	0xbdfe2bc6	-0.12410693
202	0x3e09d58d	0.1346037
203	0x3f491f72	0.78563607
204	0x3f1abbc8	0.6044278
205	0x3ebca899	0.3684738
206	0xbf0d957e	-0.5530623
207	0xbd84deb4	-0.0648779
208	0x3ef483a0	0.47756672
209	0x3ecbab23	0.39779004
210	0x3e9a4692	0.30131966
211	0x3e62fb68	0.22166216
212	0x3f73fe03	0.95309466
213	0xbf43df0c	-0.7651222
214	0xbe39505b	-0.1809706
215	0x3eb454f5	0.35221067
216	0xbf41f424	-0.75763154
217	0x3e5f81c7	0.2182685
218	0xbdce9452	-0.100868836
219	0x3f37415c	0.71584105
220	0x3ecf6485	0.40506378
221	0xbe695a01	-0.2278824
222	0xbef8c54d	-0.4858803
223	0x3e0f2bcf	0.13981555
224	0xbe74dd45	-0.23912533
225	0xbd33de98	-0.043913454
226	0x3e4d4345	0.20045193
227	0xbedd6630	-0.43242025
228	0xbec4e1de	-0.38453573
229	0xbe06df21	-0.13171054
230	0xbec5dba8	-0.38644147
231	0xbe59a831	-0.21255566
232	0x3f44d0ca	0.76881087
233	0xbf3cfa5c	-0.7381952
234	0xbecf38da	-0.40473062
235	0xbe4e60f9	-0.2015418
236	0xbc26541f	-0.010151892
237	0x3de4a20b	0.1116372
238	0x3dd2008d	0.10254011
239	0xbec98e48	-0.39366364
240	0xbd081669	-0.033224497
241	0xbee87c19	-0.4540718
242	0xbee8576d	-0.453792
243	0x3f3d155a	0.73860705
244	0xbddf0007	-0.10888677
245	0xbdcc4ae3	-0.09975221
246	0xbe55d935	-0.20883639
247	0x3ef94de8	0.4869225
248	0xbda81754	-0.082075745
249	0x3e7cd897	0.24691997
250	0xbef6424d	-0.48097458
251	0xbde4084e	-0.111343965
252	0xbd9ca54a	-0.07648714
253	0x3ecc749d	0.3993272
254	0x3e8d5a85	0.27608123
255	0x3eec1612	0.46110588

l1.bias f4 [8]
0	0x3f2935c1	0.66097647
1	0x3f3df004	0.7419436
2	0x3f3c92bd	0.73661405
3	0x3eb7fade	0.35933584
4	0x3f2216d4	0.6331608
5	0x3f3fa98e	0.74868095
6	0x3f8ac026	1.0839889
7	0x3f6e228d	0.9302147

l2.weight f4 [8, 8]
0	0x3f9a880f	1.2072772
1	0xbff1b0f9	-1.8882133
2	0xbf36f097	-0.7146086
3	0x3f838f0c	1.027803
4	0x3f9ae483	1.2100986
5	0x3f6e4f7d	0.9309004
6	0x3eb4257b	0.35184845
7	0xbe13db81	-0.14439203
8	0xbeea63f8	-0.45779395
9	0x3fbd7073	1.4799942
10	0x3fe5f0da	1.7964127
11	0xbd2bf5c9	-0.041982446
12	0xbf76f44b	-0.9646651
13	0x3f87637f	1.0577239
14	0x3f16cad2	0.5890323
15	0xbeeb2f93	-0.45934734
16	0x3e933731	0.28753045
17	0x3cc0b69e	0.023524579
18	0xbf022b89	-0.5084768
19	0xbf7fd31a	-0.9993149
20	0xbf30bd24	-0.69038606
21	0x3f39bcff	0.7255401
22	0x3f949ca6	1.1610305
23	0x3f900bfe	1.125366
24	0x3fcde42d	1.6085259
25	0x3fa6ee92	1.3041556
26	0x3fafec14	1.374392
27	0x3fc6c6d7	1.5529431
28	0x3e2d1a1b	0.1690449
29	0x3e4b0583	0.19826321
30	0xbef17821	-0.47161964
31	0x3eb13317	0.3460929
32	0xbf883293	-1.0640434
33	0x3fbcc988	1.4749002
34	0x3f5483f7	0.8301386
35	0xbf961344	-1.1724629
36	0xbdb31f3b	-0.08746191
37	0x3ead113a	0.33802205
38	0x3f6b748f	0.9197473
39	0x3fca6dcd	1.5814759
40	0x3e90b4cd	0.2826294
41	0xbfb929d6	-1.4465892
42	0xbfad7230	-1.3550472
43	0xbedbc2b3	-0.4292198
44	0x3f001b61	0.50041777
45	0x3d804843	0.06263783
46	0x3f173c5d	0.5907648
47	0x3ff25e64	1.8935056
48	0xbe91cc82	-0.2847634
49	0xbd250dc0	-0.040296316
50	0xbf70fb3b	-0.9413335
51	0x3f74d002	0.95629895
52	0xbf6bdd83	-0.92134875
53	0x3fddc5f1	1.7326032
54	0x3fa17c67	1.261609
55	0xbf8f04e0	-1.1173363
56	0xbf80900b	-1.0043958
57	0x3f063b9a	0.52434695
58	0x3eed77f4	0.4638058
59	0x3ef5946f	0.47964808
60	0x4014ac09	2.3230002
61	0xbec1a587	-0.378216
62	0x3f979280	1.1841583
63	0xbe71f1a0	-0.23627329

l2.bias f4 [8]
0	0x3f30a82c	0.6900661
1	0xbde4d776	-0.111739084
2	0x3ea816e7	0.32829973
3	0x3e7eb606	0.24874124
4	0x3f6b4c20	0.9191303
5	0x3f24c77c	0.6436689
6	0xbe17f52d	-0.14839621
7	0x3ec240d7	0.37940094

l3.weight f4 [17, 8]
0	0x3f88fd9f	1.0702399
1	0xbea8a0f3	-0.32935295
2	0xc008b676	-2.1361365
3	0x3f2cbdb8	0.6747699
4	0xbff87a3f	-1.9412307
5	0xbf64af44	-0.89329934
6	0x3f3cba04	0.7372134
7	0xc0185765	-2.3803341
8	0x3f0fce9c	0.56174636
9	0xc0446672	-3.0687528
10	0x3f4bf83e	0.7967566
11	0xbfe7bb7d	-1.8104092
12	0xbb8bce21	-0.004266516
13	0x3f9c2655	1.2199198
14	0xbf98ec5c	-1.1947131
15	0x3ce8fd18	0.028440997
16	0x3f06548e	0.5247277
17	0xbf99c969	-1.201459
18	0xbe92bc62	-0.2865935
19	0xbfc5d141	-1.5454484
20	0xbf86db5a	-1.0535691
21	0x3d2d39bf	0.0422914
22	0x3ec40d33	0.3829132
23	0x3f4083b0	0.7520094
24	0xbf8028e9	-1.0012485
25	0x3f414a05	0.7550357
26	0xc0171893	-2.360875
27	0x3fad8e5b	1.3559068
28	0xbf379979	-0.71718556
29	0xbf0dc656	-0.5538076
30	0xbf4e3484	-0.8054888
31	0xbf9caead	-1.2240807
32	0xc001e881	-2.029816
33	0x3f475eb7	0.778789
34	0xc023678c	-2.553195
35	0x3c2fbabe	0.010725675
36	0x3f04235b	0.5161645
37	0xbf9a13aa	-1.2037251
38	0xbfeef04b	-1.8667082
39	0x3f54027f	0.8281631
40	0x3ea017c1	0.31268123
41	0xc0237d4a	-2.554522
42	0xbfba6ffe	-1.4565427
43	0x3ee665c7	0.44999525
44	0xbf3b8b74	-0.73259664
45	0x3f8976c6	1.0739372
46	0xbfd56cd7	-1.667384
47	0x3e9488a6	0.29010504
48	0xbfb20747	-1.3908471
49	0xbfe6eb17	-1.8040494
50	0x3d7fffb3	0.062499713
51	0xbedb07c3	-0.4277936
52	0x3f5d74bc	0.8650625
53	0x3f016759	0.5054832
54	0xc0591d81	-3.3924258
55	0x3f0f9a12	0.5609447
56	0xbf056127	-0.5210137
57	0x3ec2d96a	0.380565
58	0x3f3ef6e2	0.74595463
59	0xbf6b3150	-0.9187212
60	0x3f14ec51	0.5817309
61	0xbd345483	-0.04402591
62	0xbf90c01c	-1.1308627
63	0xbd1e37b4	-0.03862734
64	0x3f0d9e1a	0.5531937
65	0xbf39370c	-0.7234962
66	0xbe0c0fa7	-0.13677846
67	0x3efd682a	0.49493533
68	0xbfe22d2d	-1.7670037
69	0x3da45d46	0.08025603
70	0xbdcfc4df	-0.10144972
71	0xbd63ec6c	-0.05564539
72	0x3f1af7ca	0.60534346
73	0xbf2a9773	-0.66637343
74	0x3f099d30	0.53755474
75	0xbf161982	-0.5863267
76	0xbe7fe16c	-0.24988335
77	0x3f714b52	0.94255555
78	0xbedbd323	-0.42934522
79	0xc01d9795	-2.4623768
80	0xbea37e38	-0.31932235
81	0x3e83a855	0.25714365
82	0xbec10045	-0.37695518
83	0xbdba19ea	-0.09086974
84	0xbefefc3a	-0.4980181
85	0xbf99b1e9	-1.2007419
86	0x3f0359dd	0.51308995
87	0x3e2ce7c6	0.1688529
88	0xbed71822	-0.420106
89	0x3e61e21b	0.22058909
90	0x3ee67006	0.45007342
91	0xbe23e098	-0.16003644
92	0xbe744966	-0.23856124
93	0xbf5360bc	-0.8256948
94	0x3f014928	0.5050225
95	0xbf346265	-0.7046264
96	0x3da158f2	0.07878293
97	0xbf0d7d44	-0.55269265
98	0xc01a6f71	-2.4130518
99	0xbd7aa08b	-0.061188262
100	0xbe0bb7e7	-0.13644372
101	0xbf8fb6da	-1.1227677
102	0xbf2f1fb6	-0.6840776
103	0x3f6d6df2	0.9274589
104	0xbdd54aee	-0.10414682
105	0xbe95111d	-0.2911462
106	0x3f069d31	0.52583605
107	0xc03a908e	-2.915073
108	0xbe30bab3	-0.1725872
109	0x3e9ede72	0.31029087
110	0x3f5a3010	0.8522959
111	0xbe8fde48	-0.28099275
112	0x3f5d0e4b	0.86349934
113	0xbf996af6	-1.1985767
114	0xbfc060a1	-1.5029489
115	0x3f2b3be2	0.6688825
116	0xc01c5cd6	-2.4431663
117	0xbfba140f	-1.4537371
118	0xc0136d3b	-2.303542
119	0x3f14611d	0.57960683
120	0xbec09173	-0.3761097
121	0x3f2eea91	0.6832667
122	0x3e8c7f12	0.27440697
123	0x3eb630ae	0.35584015
124	0x3f35ab89	0.70964867
125	0xbfea35ae	-1.8297632
126	0xc06744d0	-3.613575
127	0xbefba87c	-0.4915198
128	0xbf3f20b4	-0.74659276
129	0xbf79c8f8	-0.9757228
130	0xbe95b434	-0.29239047
131	0xbf7ca235	-0.9868501
132	0xbf4f8631	-0.81064135
133	0xbeafb8a7	-0.34320566
134	0xbe888ff4	-0.26672328
135	0xbe5c07af	-0.21487306

l3.bias f4 [17]
0	0x3ec1b634	0.37834322
1	0xbe061f36	-0.13097844
2	0xbc665614	-0.014058609
3	0x3ee2ccdb	0.44296917
4	0xbe816305	-0.25270858
5	0x3ea7b655	0.32756296
6	0xbd6ffe6e	-0.058592252
7	0x3eed2161	0.4631453
8	0x3d23364a	0.039846696
9	0x3d9b0a93	0.07570376
10	0xbedbfeff	-0.42967984
11	0xbf13fbee	-0.5780629
12	0x3db96e8a	0.09054287
13	0xbf0afe80	-0.54294586
14	0xbd626f78	-0.055282086
15	0x3d76501c	0.060134992
16	0xbebfd336	-0.3746583
